Train...
--------------------------------------------------
mode: train
dataPath: /media/sdb1/chenrui/kitti_data/h5/
weightsPath: ./model_data_keras2/
resultsPath: ./kitti_results/
checkpoint_savePath: ./checkpoint/
epochs: 100
batch_size: 8
optimizer: Adam
lr: 0.01
momentum: 0.9
beta1: 0.9
beta2: 0.99
workers: 4
checkpoint_file: fake
printCircle: 10
data_format: channels_first
n_channels: 3
img_height: 128
img_width: 160
layer_loss_weightsMode: L_0
num_timeSteps: 10
shuffle: True
--------------------------------------------------
PredNet (
  (i): ModuleList (
    (0): Conv2d(57, 3, kernel_size=(3, 3), stride=(1, 1), padding=(1, 1))
    (1): Conv2d(240, 48, kernel_size=(3, 3), stride=(1, 1), padding=(1, 1))
    (2): Conv2d(480, 96, kernel_size=(3, 3), stride=(1, 1), padding=(1, 1))
    (3): Conv2d(576, 192, kernel_size=(3, 3), stride=(1, 1), padding=(1, 1))
    (4): Conv2d(57, 3, kernel_size=(3, 3), stride=(1, 1), padding=(1, 1))
    (5): Conv2d(240, 48, kernel_size=(3, 3), stride=(1, 1), padding=(1, 1))
    (6): Conv2d(480, 96, kernel_size=(3, 3), stride=(1, 1), padding=(1, 1))
    (7): Conv2d(576, 192, kernel_size=(3, 3), stride=(1, 1), padding=(1, 1))
    (8): Conv2d(57, 3, kernel_size=(3, 3), stride=(1, 1), padding=(1, 1))
    (9): Conv2d(240, 48, kernel_size=(3, 3), stride=(1, 1), padding=(1, 1))
    (10): Conv2d(480, 96, kernel_size=(3, 3), stride=(1, 1), padding=(1, 1))
    (11): Conv2d(576, 192, kernel_size=(3, 3), stride=(1, 1), padding=(1, 1))
    (12): Conv2d(57, 3, kernel_size=(3, 3), stride=(1, 1), padding=(1, 1))
    (13): Conv2d(240, 48, kernel_size=(3, 3), stride=(1, 1), padding=(1, 1))
    (14): Conv2d(480, 96, kernel_size=(3, 3), stride=(1, 1), padding=(1, 1))
    (15): Conv2d(576, 192, kernel_size=(3, 3), stride=(1, 1), padding=(1, 1))
  )
  (f): ModuleList (
    (0): Conv2d(57, 3, kernel_size=(3, 3), stride=(1, 1), padding=(1, 1))
    (1): Conv2d(240, 48, kernel_size=(3, 3), stride=(1, 1), padding=(1, 1))
    (2): Conv2d(480, 96, kernel_size=(3, 3), stride=(1, 1), padding=(1, 1))
    (3): Conv2d(576, 192, kernel_size=(3, 3), stride=(1, 1), padding=(1, 1))
    (4): Conv2d(57, 3, kernel_size=(3, 3), stride=(1, 1), padding=(1, 1))
    (5): Conv2d(240, 48, kernel_size=(3, 3), stride=(1, 1), padding=(1, 1))
    (6): Conv2d(480, 96, kernel_size=(3, 3), stride=(1, 1), padding=(1, 1))
    (7): Conv2d(576, 192, kernel_size=(3, 3), stride=(1, 1), padding=(1, 1))
    (8): Conv2d(57, 3, kernel_size=(3, 3), stride=(1, 1), padding=(1, 1))
    (9): Conv2d(240, 48, kernel_size=(3, 3), stride=(1, 1), padding=(1, 1))
    (10): Conv2d(480, 96, kernel_size=(3, 3), stride=(1, 1), padding=(1, 1))
    (11): Conv2d(576, 192, kernel_size=(3, 3), stride=(1, 1), padding=(1, 1))
    (12): Conv2d(57, 3, kernel_size=(3, 3), stride=(1, 1), padding=(1, 1))
    (13): Conv2d(240, 48, kernel_size=(3, 3), stride=(1, 1), padding=(1, 1))
    (14): Conv2d(480, 96, kernel_size=(3, 3), stride=(1, 1), padding=(1, 1))
    (15): Conv2d(576, 192, kernel_size=(3, 3), stride=(1, 1), padding=(1, 1))
  )
  (c): ModuleList (
    (0): Conv2d(57, 3, kernel_size=(3, 3), stride=(1, 1), padding=(1, 1))
    (1): Conv2d(240, 48, kernel_size=(3, 3), stride=(1, 1), padding=(1, 1))
    (2): Conv2d(480, 96, kernel_size=(3, 3), stride=(1, 1), padding=(1, 1))
    (3): Conv2d(576, 192, kernel_size=(3, 3), stride=(1, 1), padding=(1, 1))
    (4): Conv2d(57, 3, kernel_size=(3, 3), stride=(1, 1), padding=(1, 1))
    (5): Conv2d(240, 48, kernel_size=(3, 3), stride=(1, 1), padding=(1, 1))
    (6): Conv2d(480, 96, kernel_size=(3, 3), stride=(1, 1), padding=(1, 1))
    (7): Conv2d(576, 192, kernel_size=(3, 3), stride=(1, 1), padding=(1, 1))
    (8): Conv2d(57, 3, kernel_size=(3, 3), stride=(1, 1), padding=(1, 1))
    (9): Conv2d(240, 48, kernel_size=(3, 3), stride=(1, 1), padding=(1, 1))
    (10): Conv2d(480, 96, kernel_size=(3, 3), stride=(1, 1), padding=(1, 1))
    (11): Conv2d(576, 192, kernel_size=(3, 3), stride=(1, 1), padding=(1, 1))
    (12): Conv2d(57, 3, kernel_size=(3, 3), stride=(1, 1), padding=(1, 1))
    (13): Conv2d(240, 48, kernel_size=(3, 3), stride=(1, 1), padding=(1, 1))
    (14): Conv2d(480, 96, kernel_size=(3, 3), stride=(1, 1), padding=(1, 1))
    (15): Conv2d(576, 192, kernel_size=(3, 3), stride=(1, 1), padding=(1, 1))
  )
  (o): ModuleList (
    (0): Conv2d(57, 3, kernel_size=(3, 3), stride=(1, 1), padding=(1, 1))
    (1): Conv2d(240, 48, kernel_size=(3, 3), stride=(1, 1), padding=(1, 1))
    (2): Conv2d(480, 96, kernel_size=(3, 3), stride=(1, 1), padding=(1, 1))
    (3): Conv2d(576, 192, kernel_size=(3, 3), stride=(1, 1), padding=(1, 1))
    (4): Conv2d(57, 3, kernel_size=(3, 3), stride=(1, 1), padding=(1, 1))
    (5): Conv2d(240, 48, kernel_size=(3, 3), stride=(1, 1), padding=(1, 1))
    (6): Conv2d(480, 96, kernel_size=(3, 3), stride=(1, 1), padding=(1, 1))
    (7): Conv2d(576, 192, kernel_size=(3, 3), stride=(1, 1), padding=(1, 1))
    (8): Conv2d(57, 3, kernel_size=(3, 3), stride=(1, 1), padding=(1, 1))
    (9): Conv2d(240, 48, kernel_size=(3, 3), stride=(1, 1), padding=(1, 1))
    (10): Conv2d(480, 96, kernel_size=(3, 3), stride=(1, 1), padding=(1, 1))
    (11): Conv2d(576, 192, kernel_size=(3, 3), stride=(1, 1), padding=(1, 1))
    (12): Conv2d(57, 3, kernel_size=(3, 3), stride=(1, 1), padding=(1, 1))
    (13): Conv2d(240, 48, kernel_size=(3, 3), stride=(1, 1), padding=(1, 1))
    (14): Conv2d(480, 96, kernel_size=(3, 3), stride=(1, 1), padding=(1, 1))
    (15): Conv2d(576, 192, kernel_size=(3, 3), stride=(1, 1), padding=(1, 1))
  )
  (A): ModuleList (
    (0): Conv2d(6, 48, kernel_size=(3, 3), stride=(1, 1), padding=(1, 1))
    (1): ReLU ()
    (2): Conv2d(96, 96, kernel_size=(3, 3), stride=(1, 1), padding=(1, 1))
    (3): ReLU ()
    (4): Conv2d(192, 192, kernel_size=(3, 3), stride=(1, 1), padding=(1, 1))
    (5): ReLU ()
  )
  (Ahat): ModuleList (
    (0): Conv2d(3, 3, kernel_size=(3, 3), stride=(1, 1), padding=(1, 1))
    (1): ReLU ()
    (2): Conv2d(48, 48, kernel_size=(3, 3), stride=(1, 1), padding=(1, 1))
    (3): ReLU ()
    (4): Conv2d(96, 96, kernel_size=(3, 3), stride=(1, 1), padding=(1, 1))
    (5): ReLU ()
    (6): Conv2d(192, 192, kernel_size=(3, 3), stride=(1, 1), padding=(1, 1))
    (7): ReLU ()
  )
  (upSample): Upsample(scale_factor=2, mode=nearest)
  (pool): MaxPool2d (size=(2, 2), stride=(2, 2), dilation=(1, 1))
)
&&&&&&&&&& 0
Ahat torch.Size([8, 3, 128, 160])
A torch.Size([8, 3, 128, 160])
&&&&&&&&&&&&&&&&&&&&
&&&&&&&&&& 1
Ahat torch.Size([8, 48, 64, 80])
A torch.Size([8, 48, 64, 80])
&&&&&&&&&&&&&&&&&&&&
&&&&&&&&&& 2
…
